…
include: 4
isTrain: False
iter_num: 2
model: eld_iter_model
model_path: /home/david.weijiecai/computational_imaging/sid_Pg_naf2.pt
nThreads: 16
name: None
netG: naf2
no_log: False
no_verbose: False
resid: False
resume: True
resume_epoch: None
seed: 2018
serial_batches: False
stage_eval: raw
stage_in: raw
stage_out: raw
with_photon: True
-------------- End ----------------
[i] NoiseModel with camera_params/release
[i] cameras: ['SonyA7S2']
[i] using noise model P+g
[i] Using adaptive_res_and_x0. 
Resume from epoch 300, iteration 386400
--------------------- Model ---------------------
NAFNet(
  (intro): Conv2d(8, 16, kernel_size=(3, 3), stride=(1, 1), padding=(1, 1))
  (ending): Conv2d(16, 9, kernel_size=(3, 3), stride=(1, 1), padding=(1, 1))
  (encoders): ModuleList(
    (0): Sequential(
      (0): NAFBlock(
        (conv1): Conv2d(16, 32, kernel_size=(1, 1), stride=(1, 1))
        (conv2): Conv2d(32, 32, kernel_size=(3, 3), stride=(1, 1), padding=(1, 1), groups=32)
        (conv3): Conv2d(16, 16, kernel_size=(1, 1), stride=(1, 1))
        (sca): Sequential(
          (0): AdaptiveAvgPool2d(output_size=1)
          (1): Conv2d(16, 16, kernel_size=(1, 1), stride=(1, 1))
        )
        (sg): SimpleGate()
        (conv4): Conv2d(16, 32, kernel_size=(1, 1), stride=(1, 1))
        (conv5): Conv2d(16, 16, kernel_size=(1, 1), stride=(1, 1))
        (norm1): LayerNorm2d()
        (norm2): LayerNorm2d()
        (dropout1): Identity()
        (dropout2): Identity()
      )
      (1): NAFBlock(
        (conv1): Conv2d(16, 32, kernel_size=(1, 1), stride=(1, 1))
        (conv2): Conv2d(32, 32, kernel_size=(3, 3), stride=(1, 1), padding=(1, 1), groups=32)
        (conv3): Conv2d(16, 16, kernel_size=(1, 1), stride=(1, 1))
        (sca): Sequential(
          (0): AdaptiveAvgPool2d(output_size=1)
          (1): Conv2d(16, 16, kernel_size=(1, 1), stride=(1, 1))
        )
        (sg): SimpleGate()
        (conv4): Conv2d(16, 32, kernel_size=(1, 1), stride=(1, 1))
        (conv5): Conv2d(16, 16, kernel_size=(1, 1), stride=(1, 1))
        (norm1): LayerNorm2d()
        (norm2): LayerNorm2d()
        (dropout1): Identity()
        (dropout2): Identity()
      )
    )
    (1): Sequential(
      (0): NAFBlock(
        (conv1): Conv2d(32, 64, kernel_size=(1, 1), stride=(1, 1))
        (conv2): Conv2d(64, 64, kernel_size=(3, 3), stride=(1, 1), padding=(1, 1), groups=64)
        (conv3): Conv2d(32, 32, kernel_size=(1, 1), stride=(1, 1))
        (sca): Sequential(
          (0): AdaptiveAvgPool2d(output_size=1)
          (1): Conv2d(32, 32, kernel_size=(1, 1), stride=(1, 1))
        )
        (sg): SimpleGate()
        (conv4): Conv2d(32, 64, kernel_size=(1, 1), stride=(1, 1))
        (conv5): Conv2d(32, 32, kernel_size=(1, 1), stride=(1, 1))
        (norm1): LayerNorm2d()
        (norm2): LayerNorm2d()
        (dropout1): Identity()
        (dropout2): Identity()
      )
      (1): NAFBlock(
        (conv1): Conv2d(32, 64, kernel_size=(1, 1), stride=(1, 1))
        (conv2): Conv2d(64, 64, kernel_size=(3, 3), stride=(1, 1), padding=(1, 1), groups=64)
        (conv3): Conv2d(32, 32, kernel_size=(1, 1), stride=(1, 1))
        (sca): Sequential(
          (0): AdaptiveAvgPool2d(output_size=1)
          (1): Conv2d(32, 32, kernel_size=(1, 1), stride=(1, 1))
        )
        (sg): SimpleGate()
        (conv4): Conv2d(32, 64, kernel_size=(1, 1), stride=(1, 1))
        (conv5): Conv2d(32, 32, kernel_size=(1, 1), stride=(1, 1))
        (norm1): LayerNorm2d()
        (norm2): LayerNorm2d()
        (dropout1): Identity()
        (dropout2): Identity()
      )
    )
    (2): Sequential(
      (0): NAFBlock(
        (conv1): Conv2d(64, 128, kernel_size=(1, 1), stride=(1, 1))
        (conv2): Conv2d(128, 128, kernel_size=(3, 3), stride=(1, 1), padding=(1, 1), groups=128)
        (conv3): Conv2d(64, 64, kernel_size=(1, 1), stride=(1, 1))
        (sca): Sequential(
          (0): AdaptiveAvgPool2d(output_size=1)
          (1): Conv2d(64, 64, kernel_size=(1, 1), stride=(1, 1))
        )
        (sg): SimpleGate()
        (conv4): Conv2d(64, 128, kernel_size=(1, 1), stride=(1, 1))
        (conv5): Conv2d(64, 64, kernel_size=(1, 1), stride=(1, 1))
        (norm1): LayerNorm2d()
        (norm2): LayerNorm2d()
        (dropout1): Identity()
        (dropout2): Identity()
      )
      (1): NAFBlock(
        (conv1): Conv2d(64, 128, kernel_size=(1, 1), stride=(1, 1))
        (conv2): Conv2d(128, 128, kernel_size=(3, 3), stride=(1, 1), padding=(1, 1), groups=128)
        (conv3): Conv2d(64, 64, kernel_size=(1, 1), stride=(1, 1))
        (sca): Sequential(
          (0): AdaptiveAvgPool2d(output_size=1)
          (1): Conv2d(64, 64, kernel_size=(1, 1), stride=(1, 1))
        )
        (sg): SimpleGate()
        (conv4): Conv2d(64, 128, kernel_size=(1, 1), stride=(1, 1))
        (conv5): Conv2d(64, 64, kernel_size=(1, 1), stride=(1, 1))
        (norm1): LayerNorm2d()
        (norm2): LayerNorm2d()
        (dropout1): Identity()
        (dropout2): Identity()
      )
      (2): NAFBlock(
        (conv1): Conv2d(64, 128, kernel_size=(1, 1), stride=(1, 1))
        (conv2): Conv2d(128, 128, kernel_size=(3, 3), stride=(1, 1), padding=(1, 1), groups=128)
        (conv3): Conv2d(64, 64, kernel_size=(1, 1), stride=(1, 1))
        (sca): Sequential(
          (0): AdaptiveAvgPool2d(output_size=1)
          (1): Conv2d(64, 64, kernel_size=(1, 1), stride=(1, 1))
        )
        (sg): SimpleGate()
        (conv4): Conv2d(64, 128, kernel_size=(1, 1), stride=(1, 1))
        (conv5): Conv2d(64, 64, kernel_size=(1, 1), stride=(1, 1))
        (norm1): LayerNorm2d()
        (norm2): LayerNorm2d()
        (dropout1): Identity()
        (dropout2): Identity()
      )
      (3): NAFBlock(
        (conv1): Conv2d(64, 128, kernel_size=(1, 1), stride=(1, 1))
        (conv2): Conv2d(128, 128, kernel_size=(3, 3), stride=(1, 1), padding=(1, 1), groups=128)
        (conv3): Conv2d(64, 64, kernel_size=(1, 1), stride=(1, 1))
        (sca): Sequential(
          (0): AdaptiveAvgPool2d(output_size=1)
          (1): Conv2d(64, 64, kernel_size=(1, 1), stride=(1, 1))
        )
        (sg): SimpleGate()
        (conv4): Conv2d(64, 128, kernel_size=(1, 1), stride=(1, 1))
        (conv5): Conv2d(64, 64, kernel_size=(1, 1), stride=(1, 1))
        (norm1): LayerNorm2d()
        (norm2): LayerNorm2d()
        (dropout1): Identity()
        (dropout2): Identity()
      )
    )
    (3): Sequential(
      (0): NAFBlock(
        (conv1): Conv2d(128, 256, kernel_size=(1, 1), stride=(1, 1))
        (conv2): Conv2d(256, 256, kernel_size=(3, 3), stride=(1, 1), padding=(1, 1), groups=256)
        (conv3): Conv2d(128, 128, kernel_size=(1, 1), stride=(1, 1))
        (sca): Sequential(
          (0): AdaptiveAvgPool2d(output_size=1)
          (1): Conv2d(128, 128, kernel_size=(1, 1), stride=(1, 1))
        )
        (sg): SimpleGate()
        (conv4): Conv2d(128, 256, kernel_size=(1, 1), stride=(1, 1))
        (conv5): Conv2d(128, 128, kernel_size=(1, 1), stride=(1, 1))
        (norm1): LayerNorm2d()
        (norm2): LayerNorm2d()
        (dropout1): Identity()
        (dropout2): Identity()
      )
      (1): NAFBlock(
        (conv1): Conv2d(128, 256, kernel_size=(1, 1), stride=(1, 1))
        (conv2): Conv2d(256, 256, kernel_size=(3, 3), stride=(1, 1), padding=(1, 1), groups=256)
        (conv3): Conv2d(128, 128, kernel_size=(1, 1), stride=(1, 1))
        (sca): Sequential(
          (0): AdaptiveAvgPool2d(output_size=1)
          (1): Conv2d(128, 128, kernel_size=(1, 1), stride=(1, 1))
        )
        (sg): SimpleGate()
        (conv4): Conv2d(128, 256, kernel_size=(1, 1), stride=(1, 1))
        (conv5): Conv2d(128, 128, kernel_size=(1, 1), stride=(1, 1))
        (norm1): LayerNorm2d()
        (norm2): LayerNorm2d()
        (dropout1): Identity()
        (dropout2): Identity()
      )
      (2): NAFBlock(
        (conv1): Conv2d(128, 256, kernel_size=(1, 1), stride=(1, 1))
        (conv2): Conv2d(256, 256, kernel_size=(3, 3), stride=(1, 1), padding=(1, 1), groups=256)
        (conv3): Conv2d(128, 128, kernel_size=(1, 1), stride=(1, 1))
        (sca): Sequential(
          (0): AdaptiveAvgPool2d(output_size=1)
          (1): Conv2d(128, 128, kernel_size=(1, 1), stride=(1, 1))
        )
        (sg): SimpleGate()
        (conv4): Conv2d(128, 256, kernel_size=(1, 1), stride=(1, 1))
        (conv5): Conv2d(128, 128, kernel_size=(1, 1), stride=(1, 1))
        (norm1): LayerNorm2d()
        (norm2): LayerNorm2d()
        (dropout1): Identity()
        (dropout2): Identity()
      )
      (3): NAFBlock(
        (conv1): Conv2d(128, 256, kernel_size=(1, 1), stride=(1, 1))
        (conv2): Conv2d(256, 256, kernel_size=(3, 3), stride=(1, 1), padding=(1, 1), groups=256)
        (conv3): Conv2d(128, 128, kernel_size=(1, 1), stride=(1, 1))
        (sca): Sequential(
          (0): AdaptiveAvgPool2d(output_size=1)
          (1): Conv2d(128, 128, kernel_size=(1, 1), stride=(1, 1))
        )
        (sg): SimpleGate()
        (conv4): Conv2d(128, 256, kernel_size=(1, 1), stride=(1, 1))
        (conv5): Conv2d(128, 128, kernel_size=(1, 1), stride=(1, 1))
        (norm1): LayerNorm2d()
        (norm2): LayerNorm2d()
        (dropout1): Identity()
        (dropout2): Identity()
      )
    )
  )
  (decoders): ModuleList(
    (0): Sequential(
      (0): NAFBlock(
        (conv1): Conv2d(128, 256, kernel_size=(1, 1), stride=(1, 1))
        (conv2): Conv2d(256, 256, kernel_size=(3, 3), stride=(1, 1), padding=(1, 1), groups=256)
        (conv3): Conv2d(128, 128, kernel_size=(1, 1), stride=(1, 1))
        (sca): Sequential(
          (0): AdaptiveAvgPool2d(output_size=1)
          (1): Conv2d(128, 128, kernel_size=(1, 1), stride=(1, 1))
        )
        (sg): SimpleGate()
        (conv4): Conv2d(128, 256, kernel_size=(1, 1), stride=(1, 1))
        (conv5): Conv2d(128, 128, kernel_size=(1, 1), stride=(1, 1))
        (norm1): LayerNorm2d()
        (norm2): LayerNorm2d()
        (dropout1): Identity()
        (dropout2): Identity()
      )
      (1): NAFBlock(
        (conv1): Conv2d(128, 256, kernel_size=(1, 1), stride=(1, 1))
        (conv2): Conv2d(256, 256, kernel_size=(3, 3), stride=(1, 1), padding=(1, 1), groups=256)
        (conv3): Conv2d(128, 128, kernel_size=(1, 1), stride=(1, 1))
        (sca): Sequential(
          (0): AdaptiveAvgPool2d(output_size=1)
          (1): Conv2d(128, 128, kernel_size=(1, 1), stride=(1, 1))
        )
        (sg): SimpleGate()
        (conv4): Conv2d(128, 256, kernel_size=(1, 1), stride=(1, 1))
        (conv5): Conv2d(128, 128, kernel_size=(1, 1), stride=(1, 1))
        (norm1): LayerNorm2d()
        (norm2): LayerNorm2d()
        (dropout1): Identity()
        (dropout2): Identity()
      )
    )
    (1): Sequential(
      (0): NAFBlock(
        (conv1): Conv2d(64, 128, kernel_size=(1, 1), stride=(1, 1))
        (conv2): Conv2d(128, 128, kernel_size=(3, 3), stride=(1, 1), padding=(1, 1), groups=128)
        (conv3): Conv2d(64, 64, kernel_size=(1, 1), stride=(1, 1))
        (sca): Sequential(
          (0): AdaptiveAvgPool2d(output_size=1)
          (1): Conv2d(64, 64, kernel_size=(1, 1), stride=(1, 1))
        )
        (sg): SimpleGate()
        (conv4): Conv2d(64, 128, kernel_size=(1, 1), stride=(1, 1))
        (conv5): Conv2d(64, 64, kernel_size=(1, 1), stride=(1, 1))
        (norm1): LayerNorm2d()
        (norm2): LayerNorm2d()
        (dropout1): Identity()
        (dropout2): Identity()
      )
      (1): NAFBlock(
        (conv1): Conv2d(64, 128, kernel_size=(1, 1), stride=(1, 1))
        (conv2): Conv2d(128, 128, kernel_size=(3, 3), stride=(1, 1), padding=(1, 1), groups=128)
        (conv3): Conv2d(64, 64, kernel_size=(1, 1), stride=(1, 1))
        (sca): Sequential(
          (0): AdaptiveAvgPool2d(output_size=1)
          (1): Conv2d(64, 64, kernel_size=(1, 1), stride=(1, 1))
        )
        (sg): SimpleGate()
        (conv4): Conv2d(64, 128, kernel_size=(1, 1), stride=(1, 1))
        (conv5): Conv2d(64, 64, kernel_size=(1, 1), stride=(1, 1))
        (norm1): LayerNorm2d()
        (norm2): LayerNorm2d()
        (dropout1): Identity()
        (dropout2): Identity()
      )
    )
    (2): Sequential(
      (0): NAFBlock(
        (conv1): Conv2d(32, 64, kernel_size=(1, 1), stride=(1, 1))
        (conv2): Conv2d(64, 64, kernel_size=(3, 3), stride=(1, 1), padding=(1, 1), groups=64)
        (conv3): Conv2d(32, 32, kernel_size=(1, 1), stride=(1, 1))
        (sca): Sequential(
          (0): AdaptiveAvgPool2d(output_size=1)
          (1): Conv2d(32, 32, kernel_size=(1, 1), stride=(1, 1))
        )
        (sg): SimpleGate()
        (conv4): Conv2d(32, 64, kernel_size=(1, 1), stride=(1, 1))
        (conv5): Conv2d(32, 32, kernel_size=(1, 1), stride=(1, 1))
        (norm1): LayerNorm2d()
        (norm2): LayerNorm2d()
        (dropout1): Identity()
        (dropout2): Identity()
      )
      (1): NAFBlock(
        (conv1): Conv2d(32, 64, kernel_size=(1, 1), stride=(1, 1))
        (conv2): Conv2d(64, 64, kernel_size=(3, 3), stride=(1, 1), padding=(1, 1), groups=64)
        (conv3): Conv2d(32, 32, kernel_size=(1, 1), stride=(1, 1))
        (sca): Sequential(
          (0): AdaptiveAvgPool2d(output_size=1)
          (1): Conv2d(32, 32, kernel_size=(1, 1), stride=(1, 1))
        )
        (sg): SimpleGate()
        (conv4): Conv2d(32, 64, kernel_size=(1, 1), stride=(1, 1))
        (conv5): Conv2d(32, 32, kernel_size=(1, 1), stride=(1, 1))
        (norm1): LayerNorm2d()
        (norm2): LayerNorm2d()
        (dropout1): Identity()
        (dropout2): Identity()
      )
    )
    (3): Sequential(
      (0): NAFBlock(
        (conv1): Conv2d(16, 32, kernel_size=(1, 1), stride=(1, 1))
        (conv2): Conv2d(32, 32, kernel_size=(3, 3), stride=(1, 1), padding=(1, 1), groups=32)
        (conv3): Conv2d(16, 16, kernel_size=(1, 1), stride=(1, 1))
        (sca): Sequential(
          (0): AdaptiveAvgPool2d(output_size=1)
          (1): Conv2d(16, 16, kernel_size=(1, 1), stride=(1, 1))
        )
        (sg): SimpleGate()
        (conv4): Conv2d(16, 32, kernel_size=(1, 1), stride=(1, 1))
        (conv5): Conv2d(16, 16, kernel_size=(1, 1), stride=(1, 1))
        (norm1): LayerNorm2d()
        (norm2): LayerNorm2d()
        (dropout1): Identity()
        (dropout2): Identity()
      )
      (1): NAFBlock(
        (conv1): Conv2d(16, 32, kernel_size=(1, 1), stride=(1, 1))
        (conv2): Conv2d(32, 32, kernel_size=(3, 3), stride=(1, 1), padding=(1, 1), groups=32)
        (conv3): Conv2d(16, 16, kernel_size=(1, 1), stride=(1, 1))
        (sca): Sequential(
          (0): AdaptiveAvgPool2d(output_size=1)
          (1): Conv2d(16, 16, kernel_size=(1, 1), stride=(1, 1))
        )
        (sg): SimpleGate()
        (conv4): Conv2d(16, 32, kernel_size=(1, 1), stride=(1, 1))
        (conv5): Conv2d(16, 16, kernel_size=(1, 1), stride=(1, 1))
        (norm1): LayerNorm2d()
        (norm2): LayerNorm2d()
        (dropout1): Identity()
        (dropout2): Identity()
      )
    )
  )
  (middle_blks): Sequential(
    (0): NAFBlock(
      (conv1): Conv2d(256, 512, kernel_size=(1, 1), stride=(1, 1))
      (conv2): Conv2d(512, 512, kernel_size=(3, 3), stride=(1, 1), padding=(1, 1), groups=512)
      (conv3): Conv2d(256, 256, kernel_size=(1, 1), stride=(1, 1))
      (sca): Sequential(
        (0): AdaptiveAvgPool2d(output_size=1)
        (1): Conv2d(256, 256, kernel_size=(1, 1), stride=(1, 1))
      )
      (sg): SimpleGate()
      (conv4): Conv2d(256, 512, kernel_size=(1, 1), stride=(1, 1))
      (conv5): Conv2d(256, 256, kernel_size=(1, 1), stride=(1, 1))
      (norm1): LayerNorm2d()
      (norm2): LayerNorm2d()
      (dropout1): Identity()
      (dropout2): Identity()
    )
    (1): NAFBlock(
      (conv1): Conv2d(256, 512, kernel_size=(1, 1), stride=(1, 1))
      (conv2): Conv2d(512, 512, kernel_size=(3, 3), stride=(1, 1), padding=(1, 1), groups=512)
      (conv3): Conv2d(256, 256, kernel_size=(1, 1), stride=(1, 1))
      (sca): Sequential(
        (0): AdaptiveAvgPool2d(output_size=1)
        (1): Conv2d(256, 256, kernel_size=(1, 1), stride=(1, 1))
      )
      (sg): SimpleGate()
      (conv4): Conv2d(256, 512, kernel_size=(1, 1), stride=(1, 1))
      (conv5): Conv2d(256, 256, kernel_size=(1, 1), stride=(1, 1))
      (norm1): LayerNorm2d()
      (norm2): LayerNorm2d()
      (dropout1): Identity()
      (dropout2): Identity()
    )
    (2): NAFBlock(
      (conv1): Conv2d(256, 512, kernel_size=(1, 1), stride=(1, 1))
      (conv2): Conv2d(512, 512, kernel_size=(3, 3), stride=(1, 1), padding=(1, 1), groups=512)
      (conv3): Conv2d(256, 256, kernel_size=(1, 1), stride=(1, 1))
      (sca): Sequential(
        (0): AdaptiveAvgPool2d(output_size=1)
        (1): Conv2d(256, 256, kernel_size=(1, 1), stride=(1, 1))
      )
      (sg): SimpleGate()
      (conv4): Conv2d(256, 512, kernel_size=(1, 1), stride=(1, 1))
      (conv5): Conv2d(256, 256, kernel_size=(1, 1), stride=(1, 1))
      (norm1): LayerNorm2d()
      (norm2): LayerNorm2d()
      (dropout1): Identity()
      (dropout2): Identity()
    )
    (3): NAFBlock(
      (conv1): Conv2d(256, 512, kernel_size=(1, 1), stride=(1, 1))
      (conv2): Conv2d(512, 512, kernel_size=(3, 3), stride=(1, 1), padding=(1, 1), groups=512)
      (conv3): Conv2d(256, 256, kernel_size=(1, 1), stride=(1, 1))
      (sca): Sequential(
        (0): AdaptiveAvgPool2d(output_size=1)
        (1): Conv2d(256, 256, kernel_size=(1, 1), stride=(1, 1))
      )
      (sg): SimpleGate()
      (conv4): Conv2d(256, 512, kernel_size=(1, 1), stride=(1, 1))
      (conv5): Conv2d(256, 256, kernel_size=(1, 1), stride=(1, 1))
      (norm1): LayerNorm2d()
      (norm2): LayerNorm2d()
      (dropout1): Identity()
      (dropout2): Identity()
    )
    (4): NAFBlock(
      (conv1): Conv2d(256, 512, kernel_size=(1, 1), stride=(1, 1))
      (conv2): Conv2d(512, 512, kernel_size=(3, 3), stride=(1, 1), padding=(1, 1), groups=512)
      (conv3): Conv2d(256, 256, kernel_size=(1, 1), stride=(1, 1))
      (sca): Sequential(
        (0): AdaptiveAvgPool2d(output_size=1)
        (1): Conv2d(256, 256, kernel_size=(1, 1), stride=(1, 1))
      )
      (sg): SimpleGate()
      (conv4): Conv2d(256, 512, kernel_size=(1, 1), stride=(1, 1))
      (conv5): Conv2d(256, 256, kernel_size=(1, 1), stride=(1, 1))
      (norm1): LayerNorm2d()
      (norm2): LayerNorm2d()
      (dropout1): Identity()
      (dropout2): Identity()
    )
    (5): NAFBlock(
      (conv1): Conv2d(256, 512, kernel_size=(1, 1), stride=(1, 1))
      (conv2): Conv2d(512, 512, kernel_size=(3, 3), stride=(1, 1), padding=(1, 1), groups=512)
      (conv3): Conv2d(256, 256, kernel_size=(1, 1), stride=(1, 1))
      (sca): Sequential(
        (0): AdaptiveAvgPool2d(output_size=1)
        (1): Conv2d(256, 256, kernel_size=(1, 1), stride=(1, 1))
      )
      (sg): SimpleGate()
      (conv4): Conv2d(256, 512, kernel_size=(1, 1), stride=(1, 1))
      (conv5): Conv2d(256, 256, kernel_size=(1, 1), stride=(1, 1))
      (norm1): LayerNorm2d()
      (norm2): LayerNorm2d()
      (dropout1): Identity()
      (dropout2): Identity()
    )
    (6): NAFBlock(
      (conv1): Conv2d(256, 512, kernel_size=(1, 1), stride=(1, 1))
      (conv2): Conv2d(512, 512, kernel_size=(3, 3), stride=(1, 1), padding=(1, 1), groups=512)
      (conv3): Conv2d(256, 256, kernel_size=(1, 1), stride=(1, 1))
      (sca): Sequential(
        (0): AdaptiveAvgPool2d(output_size=1)
        (1): Conv2d(256, 256, kernel_size=(1, 1), stride=(1, 1))
      )
      (sg): SimpleGate()
      (conv4): Conv2d(256, 512, kernel_size=(1, 1), stride=(1, 1))
      (conv5): Conv2d(256, 256, kernel_size=(1, 1), stride=(1, 1))
      (norm1): LayerNorm2d()
      (norm2): LayerNorm2d()
      (dropout1): Identity()
      (dropout2): Identity()
    )
    (7): NAFBlock(
      (conv1): Conv2d(256, 512, kernel_size=(1, 1), stride=(1, 1))
      (conv2): Conv2d(512, 512, kernel_size=(3, 3), stride=(1, 1), padding=(1, 1), groups=512)
      (conv3): Conv2d(256, 256, kernel_size=(1, 1), stride=(1, 1))
      (sca): Sequential(
        (0): AdaptiveAvgPool2d(output_size=1)
        (1): Conv2d(256, 256, kernel_size=(1, 1), stride=(1, 1))
      )
      (sg): SimpleGate()
      (conv4): Conv2d(256, 512, kernel_size=(1, 1), stride=(1, 1))
      (conv5): Conv2d(256, 256, kernel_size=(1, 1), stride=(1, 1))
      (norm1): LayerNorm2d()
      (norm2): LayerNorm2d()
      (dropout1): Identity()
      (dropout2): Identity()
    )
    (8): NAFBlock(
      (conv1): Conv2d(256, 512, kernel_size=(1, 1), stride=(1, 1))
      (conv2): Conv2d(512, 512, kernel_size=(3, 3), stride=(1, 1), padding=(1, 1), groups=512)
      (conv3): Conv2d(256, 256, kernel_size=(1, 1), stride=(1, 1))
      (sca): Sequential(
        (0): AdaptiveAvgPool2d(output_size=1)
        (1): Conv2d(256, 256, kernel_size=(1, 1), stride=(1, 1))
      )
      (sg): SimpleGate()
      (conv4): Conv2d(256, 512, kernel_size=(1, 1), stride=(1, 1))
      (conv5): Conv2d(256, 256, kernel_size=(1, 1), stride=(1, 1))
      (norm1): LayerNorm2d()
      (norm2): LayerNorm2d()
      (dropout1): Identity()
      (dropout2): Identity()
    )
    (9): NAFBlock(
      (conv1): Conv2d(256, 512, kernel_size=(1, 1), stride=(1, 1))
      (conv2): Conv2d(512, 512, kernel_size=(3, 3), stride=(1, 1), padding=(1, 1), groups=512)
      (conv3): Conv2d(256, 256, kernel_size=(1, 1), stride=(1, 1))
      (sca): Sequential(
        (0): AdaptiveAvgPool2d(output_size=1)
        (1): Conv2d(256, 256, kernel_size=(1, 1), stride=(1, 1))
      )
      (sg): SimpleGate()
      (conv4): Conv2d(256, 512, kernel_size=(1, 1), stride=(1, 1))
      (conv5): Conv2d(256, 256, kernel_size=(1, 1), stride=(1, 1))
      (norm1): LayerNorm2d()
      (norm2): LayerNorm2d()
      (dropout1): Identity()
      (dropout2): Identity()
    )
    (10): NAFBlock(
      (conv1): Conv2d(256, 512, kernel_size=(1, 1), stride=(1, 1))
      (conv2): Conv2d(512, 512, kernel_size=(3, 3), stride=(1, 1), padding=(1, 1), groups=512)
      (conv3): Conv2d(256, 256, kernel_size=(1, 1), stride=(1, 1))
      (sca): Sequential(
        (0): AdaptiveAvgPool2d(output_size=1)
        (1): Conv2d(256, 256, kernel_size=(1, 1), stride=(1, 1))
      )
      (sg): SimpleGate()
      (conv4): Conv2d(256, 512, kernel_size=(1, 1), stride=(1, 1))
      (conv5): Conv2d(256, 256, kernel_size=(1, 1), stride=(1, 1))
      (norm1): LayerNorm2d()
      (norm2): LayerNorm2d()
      (dropout1): Identity()
      (dropout2): Identity()
    )
    (11): NAFBlock(
      (conv1): Conv2d(256, 512, kernel_size=(1, 1), stride=(1, 1))
      (conv2): Conv2d(512, 512, kernel_size=(3, 3), stride=(1, 1), padding=(1, 1), groups=512)
      (conv3): Conv2d(256, 256, kernel_size=(1, 1), stride=(1, 1))
      (sca): Sequential(
        (0): AdaptiveAvgPool2d(output_size=1)
        (1): Conv2d(256, 256, kernel_size=(1, 1), stride=(1, 1))
      )
      (sg): SimpleGate()
      (conv4): Conv2d(256, 512, kernel_size=(1, 1), stride=(1, 1))
      (conv5): Conv2d(256, 256, kernel_size=(1, 1), stride=(1, 1))
      (norm1): LayerNorm2d()
      (norm2): LayerNorm2d()
      (dropout1): Identity()
      (dropout2): Identity()
    )
  )
  (ups): ModuleList(
    (0): Sequential(
      (0): Conv2d(256, 512, kernel_size=(1, 1), stride=(1, 1), bias=False)
      (1): PixelShuffle(upscale_factor=2)
    )
    (1): Sequential(
      (0): Conv2d(128, 256, kernel_size=(1, 1), stride=(1, 1), bias=False)
      (1): PixelShuffle(upscale_factor=2)
    )
    (2): Sequential(
      (0): Conv2d(64, 128, kernel_size=(1, 1), stride=(1, 1), bias=False)
      (1): PixelShuffle(upscale_factor=2)
    )
    (3): Sequential(
      (0): Conv2d(32, 64, kernel_size=(1, 1), stride=(1, 1), bias=False)
      (1): PixelShuffle(upscale_factor=2)
    )
  )
  (downs): ModuleList(
    (0): Conv2d(16, 32, kernel_size=(2, 2), stride=(2, 2))
    (1): Conv2d(32, 64, kernel_size=(2, 2), stride=(2, 2))
    (2): Conv2d(64, 128, kernel_size=(2, 2), stride=(2, 2))
    (3): Conv2d(128, 256, kernel_size=(2, 2), stride=(2, 2))
  )
)
Total number of parameters: 6897865
The size of receptive field: 84
Eval ratio fill
[i] Evaluation using iterartion number of 2
/opt/conda/envs/ci/lib/python3.6/site-packages/torch/utils/data/dataloader.py:481: UserWarning: This DataLoader will create 16 worker processes in total. Our suggested max number of worker in current system is 8, which is smaller than what this DataLoader is going to create. Please be aware that excessive worker creation might get DataLoader running slow or even freeze, lower the worker number to avoid potential slowness/freeze if necessary.
…
